Starting Training
Preprocessing data... in preprocess_data.py
Preprocessed data saved in preprocessed_data.pkl
Entered in Train_row.py
Device: cuda
Data length: 30000
Loading pretrained word2vec model...
Word2vec Loaded
Creating dataset...
Creating dataloader...
Dataloader length: 938
Creating the model...
Model: RowModel(
  (positional_encoding): PositionalEncoding()
  (layer): TransformerEncoderLayer(
    (self_attn): MultiheadAttention(
      (out_proj): NonDynamicallyQuantizableLinear(in_features=300, out_features=300, bias=True)
    )
    (linear1): Linear(in_features=300, out_features=2048, bias=True)
    (dropout): Dropout(p=0.1, inplace=False)
    (linear2): Linear(in_features=2048, out_features=300, bias=True)
    (norm1): LayerNorm((300,), eps=1e-05, elementwise_affine=True)
    (norm2): LayerNorm((300,), eps=1e-05, elementwise_affine=True)
    (dropout1): Dropout(p=0.1, inplace=False)
    (dropout2): Dropout(p=0.1, inplace=False)
  )
  (multihead_attn): TransformerEncoder(
    (layers): ModuleList(
      (0): TransformerEncoderLayer(
        (self_attn): MultiheadAttention(
          (out_proj): NonDynamicallyQuantizableLinear(in_features=300, out_features=300, bias=True)
        )
        (linear1): Linear(in_features=300, out_features=2048, bias=True)
        (dropout): Dropout(p=0.1, inplace=False)
        (linear2): Linear(in_features=2048, out_features=300, bias=True)
        (norm1): LayerNorm((300,), eps=1e-05, elementwise_affine=True)
        (norm2): LayerNorm((300,), eps=1e-05, elementwise_affine=True)
        (dropout1): Dropout(p=0.1, inplace=False)
        (dropout2): Dropout(p=0.1, inplace=False)
      )
    )
  )
  (fc): Linear(in_features=87900, out_features=1, bias=True)
)
Creating the loss function...
Creating the optimizer...
Training the model...
0
1
2
3
4
5
6
7
8
9
10
11
12
13
14
15
16
17
18
19
20
21
22
23
24
25
26
27
28
29
30
31
32
33
34
35
36
37
38
39
40
41
42
43
44
45
46
47
48
49
50
51
52
53
54
55
56
57
58
59
60
61
62
63
64
65
66
67
68
69
70
71
72
73
74
75
76
77
78
79
80
81
82
83
84
85
86
87
88
89
90
91
92
93
94
…
927
928
929
930
931
932
933
934
935
936
937
Epoch: 49 Loss: 0.4964466874660459 Time: 4.286221766471863 minutes
Accuracy: 74.28888888888889
Saving the model...
Model saved 49
Device: cuda
Data length: 30000
Loading pretrained word2vec model...
Word2vec Loaded
Creating dataset...
Creating dataloader...
Dataloader length: 469
Creating the model...
Model: ColumnModel(
  (positional_encoding): PositionalEncoding()
  (layer): TransformerEncoderLayer(
    (self_attn): MultiheadAttention(
      (out_proj): NonDynamicallyQuantizableLinear(in_features=300, out_features=300, bias=True)
    )
    (linear1): Linear(in_features=300, out_features=2048, bias=True)
    (dropout): Dropout(p=0.1, inplace=False)
    (linear2): Linear(in_features=2048, out_features=300, bias=True)
    (norm1): LayerNorm((300,), eps=1e-05, elementwise_affine=True)
    (norm2): LayerNorm((300,), eps=1e-05, elementwise_affine=True)
    (dropout1): Dropout(p=0.1, inplace=False)
    (dropout2): Dropout(p=0.1, inplace=False)
  )
  (multihead_attn): TransformerEncoder(
    (layers): ModuleList(
      (0): TransformerEncoderLayer(
        (self_attn): MultiheadAttention(
          (out_proj): NonDynamicallyQuantizableLinear(in_features=300, out_features=300, bias=True)
        )
        (linear1): Linear(in_features=300, out_features=2048, bias=True)
        (dropout): Dropout(p=0.1, inplace=False)
        (linear2): Linear(in_features=2048, out_features=300, bias=True)
        (norm1): LayerNorm((300,), eps=1e-05, elementwise_affine=True)
        (norm2): LayerNorm((300,), eps=1e-05, elementwise_affine=True)
        (dropout1): Dropout(p=0.1, inplace=False)
        (dropout2): Dropout(p=0.1, inplace=False)
      )
    )
  )
  (fc): Linear(in_features=300, out_features=1, bias=True)
)
Creating the loss function...
Creating the optimizer...
Training the model...
Epoch: 0 Loss: 4.158883108004832
Accuracy: 16.993333333333332
Saving the model...
COLUMN Model Saved 0
Epoch: 1 Loss: 4.158883116138515
Accuracy: 16.993333333333332
Saving the model...
COLUMN Model Saved 1
Epoch: 2 Loss: 4.158883115121805
Accuracy: 16.993333333333332
Saving the model...
…
